…
&lt;h4 id=&quot;outline-&quot;&gt;Outline :&lt;/h4&gt;
&lt;p&gt;&lt;img src=&quot;/assets/img/Merge-For-Image-Captioning.png&quot; alt=&quot;&quot; /&gt;&lt;/p&gt;

&lt;div class=&quot;language-plaintext highlighter-rouge&quot;&gt;&lt;div class=&quot;highlight&quot;&gt;&lt;pre class=&quot;highlight&quot;&gt;&lt;code&gt;____________________________________________________________________________________________________
Layer (type)                     Output Shape          Param #     Connected to
====================================================================================================
input_2 (InputLayer)             (None, 34)            0
____________________________________________________________________________________________________
input_1 (InputLayer)             (None, 4096)          0
____________________________________________________________________________________________________
embedding_1 (Embedding)          (None, 34, 256)       1940224     input_2[0][0]
____________________________________________________________________________________________________
dropout_1 (Dropout)              (None, 4096)          0           input_1[0][0]
____________________________________________________________________________________________________
dropout_2 (Dropout)              (None, 34, 256)       0           embedding_1[0][0]
____________________________________________________________________________________________________
dense_1 (Dense)                  (None, 256)           1048832     dropout_1[0][0]
____________________________________________________________________________________________________
lstm_1 (LSTM)                    (None, 256)           525312      dropout_2[0][0]
____________________________________________________________________________________________________
add_1 (Add)                      (None, 256)           0           dense_1[0][0]
                                                                   lstm_1[0][0]
____________________________________________________________________________________________________
dense_2 (Dense)                  (None, 256)           65792       add_1[0][0]
____________________________________________________________________________________________________
dense_3 (Dense)                  (None, 7579)          1947803     dense_2[0][0]
====================================================================================================
Total params: 5,527,963
Trainable params: 5,527,963
Non-trainable params: 0
____________________________________________________________________________________________________
&lt;/code&gt;&lt;/pre&gt;&lt;/div&gt;&lt;/div&gt;
&lt;h2 id=&quot;processing-in-batch&quot;&gt;Processing in batch&lt;/h2&gt;
…
